checkpoints/simple.model (torch, 73591 bytes, 14 tensors)

channel_embedding.weight f4 [128, 5, 1]
00000000: a0c2 b13e b3c4 49be 7ade 3cbe e85e 4ebe
00000010: cf0c 56be 1bd6 c53e 275c b33e 4778 7a3f
00000020: 8fb2 aa3e 58b3 4f3d 6a24 923e a51f aebe
00000030: efe2 8c3f 3bc1 4d3e 3567 df3e 3993 cdbc
00000040: d5e4 e7be fb65 333f 844f d03e db82 9bbe
00000050: 5972 bf3e aa2a 95bb 350a 873f e1e0 80be
00000060: 7f0a c03e 6e31 bc3e 2b5d 843d 4629 373f
00000070: 880a f63e 514c d2be f722 a7be 1fec 283e
00000080: 9594 15bf 9cdc 873d dd30 20be 9939 d3bd
00000090: 63b6 cf3c d79b 8bbe 907e 50be 9007 a7be
000000a0: a9ba 47be b280 e23e 7707 24bf 363c 44be
000000b0: 373e ed3e ff29 22be a4f2 c0bd 5905 93bd
000000c0: da0f 3d3e c3e0 83be 84c8 19be cae5 103e
000000d0: f139 8e3f d9a1 713e 786b 17be f494 933e
000000e0: 8955 8f3c cdbe 493f 97d5 c13e 9ef8 dabe
000000f0: 4a62 863c 855a 60be f1b8 7f3f 7257 a83d
00000100: 95b3 2f3e 2224 dbbd 9fa0 313d 80fd 39bf
00000110: cb84 90be ea56 a63d 90d9 423d 0193 e23e
00000120: 4e0a 0cbf f99e 5ebd 0b96 313e 8fa8 b8be
00000130: 1327 29bb 3897 eebe 59c8 9dbe 9a5f 73bd
00000140: d18d 9fbe 9a65 13be 6f63 b63d d68f 323c
00000150: 50df bb3e b62f ab3d bd16 aebe 8421 8cbe
00000160: d04c 623e 648c ddbc cfbb 623e 3d2a 3ebe
00000170: 6d46 21bf 335e cbbc efbd d7be 0cd3 a2bd
00000180: 21e9 d0be 9bca 46bf b80d ac3e 849d 3abd
00000190: 6422 a83e cfe9 bcbe d5f9 e13e 6cbe cd3e
000001a0: 27e5 30bc 61b8 f93d d2cb 483e f327 313e
000001b0: 0efb 693e 7281 d43e 9130 ddbe b914 dd3e
000001c0: 43f7 91bf c082 c9bc 0fa0 bd3e 880f 65bd
000001d0: 6d84 6b3d 23fc ca3e 8c1e 063e c861 47bd
000001e0: a438 b6be 13ed d23e f2c4 713e 1792 0bbd
000001f0: 60f1 b9bd b083 0a3e d86d 7fbd 66bd f3bd
00000200: 8a45 ccba 9667 c5be bfc7 423e d09e d53e
00000210: ba9d 84bf e0ad 0b3e fa29 20be c49f a53e
00000220: 7e80 a83e 9c9e 813f cffb 58be eaf9 61be
00000230: 7463 d23d 7827 c2be 49e7 15bf 120f 893c
00000240: de58 7c3d 5d6b 873e ba39 df3c 6f93 773f
00000250: 4f17 17be b8bf 7e3e 3ff2 c4be b07b 96bb
00000260: 7a54 dbbe 0b67 75be a884 2c3e 00d6 9c3e
00000270: ace2 dfbe 5044 83be 6a0a cfbe 2b83 5abd
00000280: 9108 a53e 79e9 04be b472 5b3f 3cfe bcbe
00000290: 0a1b 24be 77e7 833d b61f 92be 1281 8cbf
000002a0: 104b bbbe 8ac3 ab3e 7c11 753e 1870 a2bd
000002b0: fce4 473f 8f58 c5bc 135e a3be ae88 95be
000002c0: be2f cdbe c231 2bbf 5f5f 3ebe 18e3 8fbe
000002d0: d058 8f3e 7f05 bd3e 1322 833f c024 a9be
000002e0: 2ddb d2be 9ca0 cebe 3c40 7f3e 3bd3 72bf
000002f0: 4766 17be 9d5a 88bd 0688 e13e cdc4 acbe
00000300: 7476 663e 7cd1 613e cbfd b93d ce3a cabe
00000310: b973 22be b743 733e 71d3 a6be 53f7 423e
00000320: 60ad 903e 0ca3 dabe 7dea 8abf aad5 b83e
00000330: f486 6fbc b5e0 13be 033b cbbc 1749 62be
00000340: 82b3 6a3e 7b03 dabe 6359 e73e 6d39 d23e
00000350: a317 16bf 7bf7 10be 3fdf a6be 6459 d03e
00000360: 8650 ab3d 628b 793f e37d 3bbe 0dd6 86be
00000370: d86b 403e 6243 773e 01b4 393f 6c2a 5ebe
00000380: cedc 5b3e 38f2 623e aef6 49be abc4 ac3e
00000390: 6e0e b9be 4d81 9abe 7402 27bd 2c3f c83e
000003a0: 581f 2d3e c45a a4be 109b 82be 254f f0be
000003b0: 8302 70be d36f 6ebf 690b a0be bd39 0cbd
000003c0: 11cc 63be 952b 3abe b669 6abf fed0 5ebe
000003d0: 68cd 8c3e 3714 9cbe 2ebf 07bd 9633 1abf
000003e0: 85e5 c9be e001 9bbe aa73 39be 3a72 43be
000003f0: a21c a3bc 3b54 b23e 1be7 bbbe 3d71 f6bd
0.347188 -0.19703941 -0.18444243 -0.20153391 -0.20903324 0.38639912 0.35031244 0.9783978
0.33339354 0.050708145 0.28543407 -0.34008518 1.1006755 0.20093243 0.43633428 -0.025094615
-0.45291772 0.70077485 0.40685666 -0.30373272 0.37391928 -0.004552205 1.054999 -0.2517157
0.37508008 0.36756462 0.06463083 0.71547353 0.4805491 -0.4107385 -0.32643864 0.16496323
-0.58429843 0.06633875 -0.1564364 -0.1031372 0.025355523 -0.27267334 -0.2036078 -0.32622957
-0.19504799 0.44238812 -0.6407389 -0.19163594 0.4633653 -0.15836333 -0.0942128 -0.07178754
0.18463078 -0.25757417 -0.15017897 0.14150158 1.1111432 0.23596896 -0.1478709 0.2882458
0.017496841 0.78806764 0.3785827 -0.42767805 0.01640429 -0.2190953 0.99891573 0.08219804
0.17158349 -0.10700251 0.04336607 -0.72652435 -0.28226313 0.08122046 0.047570765 0.4425278
-0.54703224 -0.054350827 0.17342393 -0.360661 -0.0025810644 -0.46599746 -0.30816916 -0.059417345
-0.31162885 -0.14394227 0.08905684 0.010898551 0.3669381 0.083587095 -0.34001723 -0.2736932
0.22099614 -0.027044483 0.22141956 -0.185708 -0.62998086 -0.024825191 -0.42137095 -0.0795041
-0.40802863 -0.776529 0.33604217 -0.045560375 0.32838738 -0.36897132 0.4413592 0.40184343
-0.010796822 0.121933706 0.19609001 0.17300396 0.22849676 0.4150501 -0.43201116 0.43179873
-1.1403583 -0.02459848 0.37036178 -0.055923015 0.057499338 0.3964549 0.1309759 -0.048677236
-0.35590088 0.41196498 0.23610285 -0.03407487 -0.09079242 0.13526797 -0.062360615 -0.11901359
-0.0015584689 -0.38555592 0.1902151 0.41722727 -1.0360634 0.13640547 -0.15641013 0.32348454
0.32910532 1.0126529 -0.21189807 -0.22067991 0.102728754 -0.37920737 -0.5855604 0.016730819
0.061608188 0.264491 0.027249206 0.9670934 -0.14754985 0.24877822 -0.3846607 -0.0045923814
-0.42837888 -0.23965089 0.1684748 0.3063202 -0.43727624 -0.25638056 -0.40437633 -0.053347748
0.32233098 -0.12979688 0.857219 -0.36912715 -0.1602594 0.06440633 -0.2853982 -1.0976889
-0.36580706 0.33547622 0.23932451 -0.079315364 0.7808378 -0.02409008 -0.3190771 -0.2920584
-0.40075487 -0.668728 -0.18591069 -0.28102946 0.27997446 0.36918256 1.0244774 -0.3303585
-0.41182843 -0.4035691 0.24926847 -0.9485356 -0.1478511 -0.06657908 0.4404909 -0.33743897
0.22506124 0.22052568 0.0908161 -0.3949799 -0.15864457 0.237563 -0.32583192 0.19039659
0.28257275 -0.4270252 -1.085281 0.36100513 -0.014619578 -0.14441188 -0.024808412 -0.22098194
0.2292004 -0.4258078 0.45185384 0.41059437 -0.58629817 -0.14156906 -0.32592198 0.406932
0.08364968 0.97478306 -0.1830974 -0.26335183 0.18791139 0.24146798 0.7254029 -0.2169587
0.21470949 0.22162712 -0.19723007 0.33743796 -0.3614382 -0.30176774 -0.040773824 0.39110696
0.16906488 -0.321005 -0.25508928 -0.46935382 -0.23438458 -0.9313938 -0.31258705 -0.03423475
-0.22245814 -0.18180688 -0.9156755 -0.21759412 0.27500463 -0.30484173 -0.033141308 -0.60234964
-0.39432922 -0.30274868 -0.18110529 -0.19086543 -0.019911114 0.34829888 -0.36699757 -0.12033317

channel_embedding.bias f4 [128]
00000000: b1ed 123f 1631 bcbe e4b8 7d3e d9cb b43e
00000010: 2698 91be aa30 0f3c 160e 143f cc57 47be
00000020: 05b1 093f fc99 4e3e 094f ccbe dbeb 783e
00000030: 35f7 8cbe 6ec1 1e3f 840b 2c3f abed b53e
00000040: 3325 003e 9bbf 713e f014 8bbb 6a09 f6bd
00000050: 16f5 6abd 9297 f4be a166 8c3e 6c69 7fbe
00000060: 996a 4dbd 320b 0f3f f795 f2bd d511 533d
00000070: 2607 cc3e 1862 09bf 181d 723e cee1 47be
00000080: 14ec 023e 9d6b ea3e a3b4 35be 339f 58be
00000090: 65f0 9c3e 9eef b73d 9586 fdbe fc08 edbd
000000a0: 0df4 c63e f173 403c cf5d 933d 0b80 503e
000000b0: 8ede adbe 0515 82be 4ab9 b23e 5a67 193e
000000c0: 5a47 eabe bade 8ebe 52e8 15be 6b9e 383e
000000d0: 587a c03d 435e ea3e 5333 81be 320a c3bd
000000e0: 01cb c43e aeca b8be 9108 19be e3e7 77be
000000f0: 0179 bdbb 86df 8b3d bca7 fcbe 50f8 01bf
00000100: e63b 6c3e 8c0f ab3d fb54 183f 390b 8bbe
00000110: e812 25be 6bb0 5cbe 31ab 233f 5c4a c9bb
00000120: f33d 63bc 2bff 85be 93bd 523e c77d 8cbe
00000130: c9fd cdbe fced 993e d137 0b3f 569f f43d
00000140: ca31 9cbe 893c 903e 7d5d f6bc fdd2 fcbe
00000150: 6c88 f7be 814c 0dbe 0a2d 313e 8403 4dbe
00000160: 86f1 01bf dce5 4ebe 9fac d63e 8515 bb3c
00000170: bf57 173e c6f0 2bbe dd6b 09bd 5ca2 0fbf
00000180: 6eef 313e 701b 043f 51f0 64bd 256f 963d
00000190: ebbd e1be 498e 0abe 7e16 b4bc 7cbe 30bd
000001a0: 6bbf 613e ff5c 473d fe6a b73d b581 d83d
000001b0: 12eb fbbd bd67 efbe 1c40 0fbe 73ff e33e
000001c0: 1e75 8bbe 7093 bf3e 7090 203e ec60 eabe
000001d0: aaff c6be bfb7 b33e a632 abbd 54ce 883e
000001e0: 3b89 a9be 2a15 243e a81c b2bd cfac f2be
000001f0: a333 553e e11e dcbd 481d 213f 1a2f 88bc
0.5739394 -0.367562 0.24777561 0.35311773 -0.28436393 0.00873963 0.57833993 -0.19467086
0.53785735 0.20175928 -0.3990405 0.24308722 -0.27532354 0.620139 0.6720507 0.3553289
0.1251419 0.23608248 -0.0042444393 -0.12013514 -0.05736264 -0.4777189 0.2742205 -0.24942559
-0.050150488 0.5587646 -0.1184501 0.051530678 0.39849204 -0.53665304 0.23643911 -0.19519731
0.12785369 0.45785227 -0.17744689 -0.2115448 0.30652156 0.0898125 -0.4951674 -0.11573979
0.3885807 0.011746393 0.07195627 0.20361345 -0.33958858 -0.25406662 0.3490699 0.14980832
-0.45757562 -0.27904302 -0.14639404 0.18029182 0.09398335 0.4577504 -0.2523447 -0.09523429
0.3843613 -0.36092132 -0.14944674 -0.24209552 -0.005782247 0.06829743 -0.4934672 -0.5076952
0.23069724 0.08352575 0.5950467 -0.27157 -0.16120493 -0.21551673 0.6393309 -0.0061428975
-0.01386975 -0.2617124 0.2058013 -0.2743971 -0.40232685 0.3006438 0.54382044 0.119444534
-0.30506736 0.28171185 -0.030073876 -0.4937972 -0.4834627 -0.13798715 0.17302337 -0.20020872
-0.5075916 -0.20204872 0.41928574 0.02283741 0.14779566 -0.16791067 -0.033550132 -0.56107116
0.17376491 0.51604366 -0.055893246 0.07345418 -0.44090208 -0.1353084 -0.021983381 -0.04315041
0.22045676 0.048672672 0.08955954 0.10571615 -0.123006955 -0.46758834 -0.139893 0.4453083
-0.2723779 0.37417173 0.15680099 -0.4577707 -0.3886693 0.35101125 -0.0835927 0.26719916
-0.3311251 0.16023698 -0.08696872 -0.47397467 0.20820479 -0.10748077 0.62935305 -0.016624022

time_embedding.weight f4 [1, 4, 1]
00000000: 0a82 9ebe ff0b babe 2ff6 1abf 8a3b 9e3e
-0.30958587 -0.36337277 -0.60531896 0.309048

FC.0.weight f4 [128, 128, 1]
00000000: 16b7 a03d 3451 fabd c822 04be 5cb4 8bbd
00000010: 476c 80bd 427e f53c 1aca 8e3d 5d83 4cbc
00000020: b329 03bd 9197 9cba 3f51 843d 73ab a83d
00000030: f21b b2bd 68a9 c53d 40c0 61bd e563 f73d
00000040: 3e34 68bd bae6 07bd 3077 13bd ea24 0bbc
00000050: 9ed3 16bd 7f73 18bd 18d9 f63d 1685 533c
00000060: afa3 a23c 82a3 d13d d597 dd3d 1865 ba3d
00000070: 48a9 7e3d 9398 d13c 6e6c a83c adab 9c3a
00000080: 9007 1ebe 1c26 993c 8d6e e7bd 8395 c83d
00000090: 5d94 d6bd cd41 4d3d 1c5a cbbd 3aff 4d3c
000000a0: e256 15bd 72cb 093d 7cee 9f3d 217a 45bd
000000b0: 627b 543d 29fb 02be f117 89bb 1790 c23d
000000c0: 5715 82bc e255 58bb 0474 b8bd f2fd 09bd
000000d0: 9f02 8b3c 97da 423d 8d89 f83d 1165 873c
000000e0: 2561 dc3c b6a9 abbc af73 9d3c 54ac 073d
000000f0: 0f8c ab3c 1471 57bd 3f48 9bbd 9693 613c
00000100: 1c06 91bd c25d eb3d 0b0d cfbc d36f 263e
00000110: 70d1 043e bff4 eabd 3add bf3d 323f 8b3d
00000120: 3221 d4bd 43c7 b93d 8453 c0bd 34aa e33c
00000130: ae96 803c eb20 523c f597 c5bc b524 9a3d
00000140: 385b b23c 3a6f 04be db6c 58bd 7626 22bc
00000150: a837 d0bc af1e bebd 3148 0dba a48f c83d
00000160: 7961 02be fe3d 913a 0da9 ce3c 04c3 a33c
00000170: 6437 913d a706 cdbd ae3a 2cbd 8bbc 9bbd
00000180: d326 953c fb02 013d 0094 b4ba 8292 293d
00000190: a4e4 883c 9711 193d bdc9 bfbc 4664 b6ba
000001a0: 0435 cd3c 1201 67bd ff54 d43d 79bd f23d
000001b0: 5bbd 153d 76e5 b5bc 38fc 8fbd 5846 ee3d
000001c0: 4b5e 83bd bec9 983d 1d56 c6ba 6c75 3f3c
000001d0: 031c c73b fbbd 353d 99c7 d8bd 0669 5e3c
000001e0: 8a1c 2f3d e1f0 633d 52ef 933d 8619 b4bd
000001f0: 82bd f1bd 22ab 51bd ad22 0a3d a334 ed3d
00000200: 292b 59bd 588a 163e c0ae b23d 5586 053d
00000210: 1547 a3bd 85bf 353d 1c3a 38bc 0679 673d
00000220: fdd2 9fbd 55fb be3c ce72 f43d 4e69 d03d
00000230: 9121 683d 86a4 5b3d a3a8 2fbd 6fe0 af3c
00000240: 9c5a 22b9 bfa8 563d e039 d5bb 1a9c d43b
00000250: 96e9 843d c2cb 93bd 0508 20be 0f55 b0bc
00000260: d7cf b13d e22c 7a3d 04ee 2bbc 3d97 c03d
00000270: 616c 2dbc 12e0 e6bb ca14 c7bd 3e43 973d
00000280: 6621 933d f08d 7dbd 8899 e2bc c8c7 97bd
00000290: e610 1e3e b8ee 09be ebaf b0bb d08b b7bd
000002a0: 9e0e 86bd 3297 ff3d 63e9 02bd d447 f93d
000002b0: f808 9b3c 392a 613d 1cad 513d e3a3 8f3c
000002c0: 1a6b d7bd 1bae 83bd 4454 acbd d43f 223d
000002d0: 887f 873d e932 d83d a45d 9a3c e06d 8f3c
000002e0: 844d 613c 5644 dfbd 841b f1ba 272e 38bd
000002f0: 5e4d d0bd cf80 41bd 9061 313e fa26 9a3d
00000300: 3ac7 d13d aa7f b4bd 0261 b13d 532a edbd
00000310: d94e 253d 6498 623c f37e 80bd 3315 0d3d
00000320: 67ce 19bd 3687 933d 66af 383d 6d00 cbbb
00000330: f0ff bf3d e4a6 17be b207 c93d 20a6 55bd
00000340: dbf7 8d3c 5d4b 603d 1143 87bd 3a57 a8bc
00000350: f6cd 04be d796 acbd 18a0 cb3d 8613 28bc
00000360: 469f 883d 5b10 963d a59e 00b9 611b 14bd
00000370: ddb1 373d d712 a33c 7657 3d3e 6f2d 0d3e
00000380: 33b0 d73d 6888 9d3c 60aa 4fbd c286 74bd
00000390: caa3 0b3d b398 3ebd e609 17bd 985a d9bd
000003a0: b0c5 9a3d 48b4 143d fb0e be3d d1ad b9bd
000003b0: b63a 003d 8d75 413e 1864 80bd 7375 fb3c
000003c0: c090 b93d cdeb d53d c7d4 8dbd eedd 2bbd
000003d0: bd76 d53d bf84 3abc dfad d93c b2ff 8d3c
000003e0: e943 973c 0574 a93d c117 e13d ce37 ad3c
000003f0: 3d02 0ebc c728 22bd 8cc3 a0bc 558f 223c
0.07847421 -0.122225195 -0.12903893 -0.0682151 -0.06270652 0.029967431 0.069721416 -0.012482491
-0.03202219 -0.0011947026 0.06460809 0.08235826 -0.086967364 0.09651452 -0.055114985 0.120796
-0.056690447 -0.033179022 -0.036002338 -0.008492688 -0.036822908 -0.03721952 0.12053126 0.012910148
0.019853441 0.10236265 0.10819975 0.09101313 0.062173158 0.025585448 0.020559516 0.0011953019
-0.15432572 0.01869493 -0.11300383 0.09794142 -0.10477517 0.05011158 -0.099292964 0.012573058
-0.03645981 0.033641286 0.07809159 -0.048212174 0.05187548 -0.12791122 -0.0041837622 0.09500139
-0.015879316 -0.0033010175 -0.09006503 -0.033689447 0.016969023 0.047571745 0.12135611 0.016527684
0.02690179 -0.020954948 0.019220201 0.03312333 0.020940809 -0.052598074 -0.07582139 0.013768097
-0.070812434 0.11492492 -0.025274774 0.16253595 0.12970519 -0.11472463 0.093683675 0.06799163
-0.10357894 0.09071209 -0.09390929 0.02779112 0.01569685 0.012825231 -0.02412031 0.075265326
0.021772012 -0.12933055 -0.052838188 -0.009896865 -0.025417164 -0.09283196 -0.00053894805 0.09793022
-0.12732495 0.0011081097 0.025227094 0.019990452 0.07090643 -0.100110345 -0.04204815 -0.07604321
0.01820699 0.031496983 -0.0013777018 0.041399486 0.016710587 0.03737029 -0.023411626 -0.0013915382
0.025049694 -0.056397505 0.10367774 0.11852545 0.036557537 -0.022204142 -0.07030529 0.11634511
-0.06414469 0.07460354 -0.0015131865 0.01168571 0.0060763373 0.044370633 -0.10584945 0.013574844
0.042751826 0.055649642 0.07223381 -0.08793931 -0.11803724 -0.051188596 0.033724476 0.11582305
-0.053019676 0.14701211 0.08724737 0.032598812 -0.07972542 0.0443721 -0.011244323 0.0565119
-0.07803915 0.023313204 0.1193596 0.10176335 0.056672636 0.0536237 -0.042885434 0.021469323
-0.00015483279 0.052407023 -0.0065071434 0.0064883353 0.064898655 -0.07216598 -0.15628059 -0.021524934
0.086822204 0.06107796 -0.010493759 0.094038464 -0.010584922 -0.007045754 -0.09720762 0.07385872
0.071841046 -0.06190294 -0.0276611 -0.07411152 0.15436134 -0.1346997 -0.005392065 -0.08962214
-0.06545757 0.1248001 -0.031960856 0.12171903 0.018925175 0.054971907 0.05119048 0.017534202
-0.10518475 -0.06429692 -0.0841451 0.039611652 0.066161215 0.10556585 0.01884348 0.017508447
0.013751391 -0.10901706 -0.0018395041 -0.04496589 -0.101710066 -0.047241982 0.17322373 0.075269654
0.102430776 -0.088134125 0.08661081 -0.11580338 0.040358398 0.013830278 -0.06274214 0.034444045
-0.037550356 0.07203524 0.045089148 -0.006195119 0.09374988 -0.14809757 0.09815921 -0.052160382
0.0173301 0.054759372 -0.06604589 -0.020549405 -0.12969193 -0.08427208 0.09942645 -0.010258561
0.06671004 0.07327338 -0.00012266131 -0.036158923 0.044847358 0.019906444 0.18490395 0.13786863
0.10531654 0.019230083 -0.05069959 -0.059698828 0.03409175 -0.046532344 -0.036874674 -0.106129825
0.07557237 0.036304742 0.09280201 -0.09066356 0.03130599 0.18892498 -0.06269091 0.030695653
0.09060812 0.10445366 -0.0692535 -0.041959696 0.10423038 -0.011384188 0.026572166 0.01733384
0.018465 0.08274082 0.10990859 0.021144774 -0.008667526 -0.03958967 -0.019624494 0.009921868

FC.0.bias f4 [128]
00000000: 5b42 69be e307 c3bd e27c 8d3d a81a 59be
00000010: fef6 fb3d c429 da3d 2005 26be c86a efbd
00000020: 2f5d 14be de52 50be 297b 97be 254e 8cbe
00000030: 16fe 823d 529b e1bd b837 8fbe ee4f 89bd
00000040: e695 8d3e cfe2 70be 5aa1 8abe c53b 7dbd
00000050: 314f 213e bc01 6e3e 9ac6 ecbb a84b 7e3e
00000060: 66b7 45be fff4 93be db0b 9bbd c151 abbe
00000070: 596f 95be e522 cb3c a420 76bc d3ad 343e
00000080: 5449 cebb db8a 2abe e8d5 afba e737 763e
00000090: b4eb 97bd d011 873e 81c8 073e 4dc1 343e
000000a0: c474 15be e820 94be 6085 98be 0065 94bc
000000b0: c571 7bbe bdbf 563d 726a a4be 0323 01bc
000000c0: 7322 a63e bfea 3cbe 7c53 8b3e e7a7 2ebd
000000d0: 86ad c83d 56c7 7abd 2bc7 42bd 64bc 7ebe
000000e0: b079 443d 18cc 2d3e a638 62be 7fc7 27bc
000000f0: d7d7 0c3d 528f 383e 6da6 66bc be7b 8bbd
00000100: 0eda fa3d d2b9 1ebd c265 3fbe 63ca 73bd
00000110: 7f01 d9bd 13f0 7e3e 1851 41be c18f b3bd
00000120: 16e3 273d 244f 94be 7c54 cc3c daf3 c93c
00000130: cc6c ccbc bc3f c43d d808 3dbe 26b2 84be
00000140: 2b83 9a3e e8c8 7b3c 3ad8 783e 8010 4a3e
00000150: a5c2 7d3e 91d5 3f3e bd90 95be aeae abbd
00000160: da7e fc3d afe7 acbe 79a3 ddbd f900 183e
00000170: 0fc1 1e3d 3082 aebc 72df a5bd 5a78 4fbc
00000180: 2b72 223e 79aa e2bd f089 8e3e 4ab3 29bd
00000190: bf8c 9b3d bd1d b63d 404b 32be 6c17 ca3d
000001a0: d84c 123e 9b0c 553e 211b a2bd fd56 dfbd
000001b0: 95b2 f0bc b3ec 1ebe 1d10 6c3e 0a70 183d
000001c0: 9617 c23d 9b76 30be 36d5 4b3e 451f aabb
000001d0: fedb 62be 9c0c 17be f7e5 633d 2e8e aabd
000001e0: b2ef c0bc aa31 94bd fba1 81be a3b3 f0bd
000001f0: 874f 1b3c 3021 d3bd a8bb fdbd 064a abbc
-0.22779219 -0.09522989 0.06908585 -0.21201575 0.123029694 0.106524974 -0.16212893 -0.11690289
-0.14488672 -0.20344111 -0.2958615 -0.2740337 0.06396119 -0.11015953 -0.27972198 -0.067046985
0.27653426 -0.2352402 -0.27076226 -0.06182458 0.15752865 0.23242849 -0.0072258236 0.24833548
-0.19308242 -0.28897855 -0.075706206 -0.3346081 -0.29186514 0.024796912 -0.015022431 0.17644434
-0.0062953625 -0.16654532 -0.001341519 0.24044763 -0.07418004 0.26380777 0.1326008 0.17651863
-0.14595324 -0.28931355 -0.29789257 -0.018114567 -0.24555118 0.05242895 -0.3211246 -0.007881883
0.32448158 -0.18448924 0.2721213 -0.042640593 0.09798722 -0.061225258 -0.047553223 -0.24876553
0.047967613 0.16972387 -0.22091922 -0.010240435 0.03438553 0.18023422 -0.014077765 -0.06810711
0.12248622 -0.03875143 -0.18691161 -0.059519183 -0.105959885 0.24896269 -0.18878591 -0.08767653
0.04098805 -0.2896663 0.024942629 0.02465241 -0.024954222 0.09582469 -0.18460405 -0.25917166
0.30178198 0.015367724 0.24301234 0.19732857 0.24781282 0.18733813 -0.2921199 -0.08382927
0.123288825 -0.3377051 -0.108221956 0.14844121 0.038758334 -0.021302313 -0.080992594 -0.012662971
0.15863864 -0.11067671 0.27839613 -0.04143075 0.075952046 0.08892391 -0.17411518 0.098677486
0.14287126 0.2080559 -0.07915331 -0.109052636 -0.02938203 -0.15519981 0.23053022 0.037216224
0.09477155 -0.17232744 0.19905552 -0.005191716 -0.22154233 -0.14750904 0.055639233 -0.083279
-0.023551796 -0.07236035 -0.25318894 -0.11753013 0.00947941 -0.103090644 -0.12389308 -0.02090932

FC.1.weight f4 [128, 128, 1]
00000000: 16b7 a03d 3451 fabd c822 04be 5cb4 8bbd
00000010: 476c 80bd 427e f53c 1aca 8e3d 5d83 4cbc
00000020: b329 03bd 9197 9cba 3f51 843d 73ab a83d
00000030: f21b b2bd 68a9 c53d 40c0 61bd e563 f73d
00000040: 3e34 68bd bae6 07bd 3077 13bd ea24 0bbc
00000050: 9ed3 16bd 7f73 18bd 18d9 f63d 1685 533c
00000060: afa3 a23c 82a3 d13d d597 dd3d 1865 ba3d
00000070: 48a9 7e3d 9398 d13c 6e6c a83c adab 9c3a
00000080: 9007 1ebe 1c26 993c 8d6e e7bd 8395 c83d
00000090: 5d94 d6bd cd41 4d3d 1c5a cbbd 3aff 4d3c
000000a0: e256 15bd 72cb 093d 7cee 9f3d 217a 45bd
000000b0: 627b 543d 29fb 02be f117 89bb 1790 c23d
000000c0: 5715 82bc e255 58bb 0474 b8bd f2fd 09bd
000000d0: 9f02 8b3c 97da 423d 8d89 f83d 1165 873c
000000e0: 2561 dc3c b6a9 abbc af73 9d3c 54ac 073d
000000f0: 0f8c ab3c 1471 57bd 3f48 9bbd 9693 613c
00000100: 1c06 91bd c25d eb3d 0b0d cfbc d36f 263e
00000110: 70d1 043e bff4 eabd 3add bf3d 323f 8b3d
00000120: 3221 d4bd 43c7 b93d 8453 c0bd 34aa e33c
00000130: ae96 803c eb20 523c f597 c5bc b524 9a3d
00000140: 385b b23c 3a6f 04be db6c 58bd 7626 22bc
00000150: a837 d0bc af1e bebd 3148 0dba a48f c83d
00000160: 7961 02be fe3d 913a 0da9 ce3c 04c3 a33c
00000170: 6437 913d a706 cdbd ae3a 2cbd 8bbc 9bbd
00000180: d326 953c fb02 013d 0094 b4ba 8292 293d
00000190: a4e4 883c 9711 193d bdc9 bfbc 4664 b6ba
000001a0: 0435 cd3c 1201 67bd ff54 d43d 79bd f23d
000001b0: 5bbd 153d 76e5 b5bc 38fc 8fbd 5846 ee3d
000001c0: 4b5e 83bd bec9 983d 1d56 c6ba 6c75 3f3c
000001d0: 031c c73b fbbd 353d 99c7 d8bd 0669 5e3c
000001e0: 8a1c 2f3d e1f0 633d 52ef 933d 8619 b4bd
000001f0: 82bd f1bd 22ab 51bd ad22 0a3d a334 ed3d
00000200: 292b 59bd 588a 163e c0ae b23d 5586 053d
00000210: 1547 a3bd 85bf 353d 1c3a 38bc 0679 673d
00000220: fdd2 9fbd 55fb be3c ce72 f43d 4e69 d03d
00000230: 9121 683d 86a4 5b3d a3a8 2fbd 6fe0 af3c
00000240: 9c5a 22b9 bfa8 563d e039 d5bb 1a9c d43b
00000250: 96e9 843d c2cb 93bd 0508 20be 0f55 b0bc
00000260: d7cf b13d e22c 7a3d 04ee 2bbc 3d97 c03d
00000270: 616c 2dbc 12e0 e6bb ca14 c7bd 3e43 973d
00000280: 6621 933d f08d 7dbd 8899 e2bc c8c7 97bd
00000290: e610 1e3e b8ee 09be ebaf b0bb d08b b7bd
000002a0: 9e0e 86bd 3297 ff3d 63e9 02bd d447 f93d
000002b0: f808 9b3c 392a 613d 1cad 513d e3a3 8f3c
000002c0: 1a6b d7bd 1bae 83bd 4454 acbd d43f 223d
000002d0: 887f 873d e932 d83d a45d 9a3c e06d 8f3c
000002e0: 844d 613c 5644 dfbd 841b f1ba 272e 38bd
000002f0: 5e4d d0bd cf80 41bd 9061 313e fa26 9a3d
00000300: 3ac7 d13d aa7f b4bd 0261 b13d 532a edbd
00000310: d94e 253d 6498 623c f37e 80bd 3315 0d3d
00000320: 67ce 19bd 3687 933d 66af 383d 6d00 cbbb
00000330: f0ff bf3d e4a6 17be b207 c93d 20a6 55bd
00000340: dbf7 8d3c 5d4b 603d 1143 87bd 3a57 a8bc
00000350: f6cd 04be d796 acbd 18a0 cb3d 8613 28bc
00000360: 469f 883d 5b10 963d a59e 00b9 611b 14bd
00000370: ddb1 373d d712 a33c 7657 3d3e 6f2d 0d3e
00000380: 33b0 d73d 6888 9d3c 60aa 4fbd c286 74bd
00000390: caa3 0b3d b398 3ebd e609 17bd 985a d9bd
000003a0: b0c5 9a3d 48b4 143d fb0e be3d d1ad b9bd
000003b0: b63a 003d 8d75 413e 1864 80bd 7375 fb3c
000003c0: c090 b93d cdeb d53d c7d4 8dbd eedd 2bbd
000003d0: bd76 d53d bf84 3abc dfad d93c b2ff 8d3c
000003e0: e943 973c 0574 a93d c117 e13d ce37 ad3c
000003f0: 3d02 0ebc c728 22bd 8cc3 a0bc 558f 223c
0.07847421 -0.122225195 -0.12903893 -0.0682151 -0.06270652 0.029967431 0.069721416 -0.012482491
-0.03202219 -0.0011947026 0.06460809 0.08235826 -0.086967364 0.09651452 -0.055114985 0.120796
-0.056690447 -0.033179022 -0.036002338 -0.008492688 -0.036822908 -0.03721952 0.12053126 0.012910148
0.019853441 0.10236265 0.10819975 0.09101313 0.062173158 0.025585448 0.020559516 0.0011953019
-0.15432572 0.01869493 -0.11300383 0.09794142 -0.10477517 0.05011158 -0.099292964 0.012573058
-0.03645981 0.033641286 0.07809159 -0.048212174 0.05187548 -0.12791122 -0.0041837622 0.09500139
-0.015879316 -0.0033010175 -0.09006503 -0.033689447 0.016969023 0.047571745 0.12135611 0.016527684
0.02690179 -0.020954948 0.019220201 0.03312333 0.020940809 -0.052598074 -0.07582139 0.013768097
-0.070812434 0.11492492 -0.025274774 0.16253595 0.12970519 -0.11472463 0.093683675 0.06799163
-0.10357894 0.09071209 -0.09390929 0.02779112 0.01569685 0.012825231 -0.02412031 0.075265326
0.021772012 -0.12933055 -0.052838188 -0.009896865 -0.025417164 -0.09283196 -0.00053894805 0.09793022
-0.12732495 0.0011081097 0.025227094 0.019990452 0.07090643 -0.100110345 -0.04204815 -0.07604321
0.01820699 0.031496983 -0.0013777018 0.041399486 0.016710587 0.03737029 -0.023411626 -0.0013915382
0.025049694 -0.056397505 0.10367774 0.11852545 0.036557537 -0.022204142 -0.07030529 0.11634511
-0.06414469 0.07460354 -0.0015131865 0.01168571 0.0060763373 0.044370633 -0.10584945 0.013574844
0.042751826 0.055649642 0.07223381 -0.08793931 -0.11803724 -0.051188596 0.033724476 0.11582305
-0.053019676 0.14701211 0.08724737 0.032598812 -0.07972542 0.0443721 -0.011244323 0.0565119
-0.07803915 0.023313204 0.1193596 0.10176335 0.056672636 0.0536237 -0.042885434 0.021469323
-0.00015483279 0.052407023 -0.0065071434 0.0064883353 0.064898655 -0.07216598 -0.15628059 -0.021524934
0.086822204 0.06107796 -0.010493759 0.094038464 -0.010584922 -0.007045754 -0.09720762 0.07385872
0.071841046 -0.06190294 -0.0276611 -0.07411152 0.15436134 -0.1346997 -0.005392065 -0.08962214
-0.06545757 0.1248001 -0.031960856 0.12171903 0.018925175 0.054971907 0.05119048 0.017534202
-0.10518475 -0.06429692 -0.0841451 0.039611652 0.066161215 0.10556585 0.01884348 0.017508447
0.013751391 -0.10901706 -0.0018395041 -0.04496589 -0.101710066 -0.047241982 0.17322373 0.075269654
0.102430776 -0.088134125 0.08661081 -0.11580338 0.040358398 0.013830278 -0.06274214 0.034444045
-0.037550356 0.07203524 0.045089148 -0.006195119 0.09374988 -0.14809757 0.09815921 -0.052160382
0.0173301 0.054759372 -0.06604589 -0.020549405 -0.12969193 -0.08427208 0.09942645 -0.010258561
0.06671004 0.07327338 -0.00012266131 -0.036158923 0.044847358 0.019906444 0.18490395 0.13786863
0.10531654 0.019230083 -0.05069959 -0.059698828 0.03409175 -0.046532344 -0.036874674 -0.106129825
0.07557237 0.036304742 0.09280201 -0.09066356 0.03130599 0.18892498 -0.06269091 0.030695653
0.09060812 0.10445366 -0.0692535 -0.041959696 0.10423038 -0.011384188 0.026572166 0.01733384
0.018465 0.08274082 0.10990859 0.021144774 -0.008667526 -0.03958967 -0.019624494 0.009921868

FC.1.bias f4 [128]
00000000: 5b42 69be e307 c3bd e27c 8d3d a81a 59be
00000010: fef6 fb3d c429 da3d 2005 26be c86a efbd
00000020: 2f5d 14be de52 50be 297b 97be 254e 8cbe
00000030: 16fe 823d 529b e1bd b837 8fbe ee4f 89bd
00000040: e695 8d3e cfe2 70be 5aa1 8abe c53b 7dbd
00000050: 314f 213e bc01 6e3e 9ac6 ecbb a84b 7e3e
00000060: 66b7 45be fff4 93be db0b 9bbd c151 abbe
00000070: 596f 95be e522 cb3c a420 76bc d3ad 343e
00000080: 5449 cebb db8a 2abe e8d5 afba e737 763e
00000090: b4eb 97bd d011 873e 81c8 073e 4dc1 343e
000000a0: c474 15be e820 94be 6085 98be 0065 94bc
000000b0: c571 7bbe bdbf 563d 726a a4be 0323 01bc
000000c0: 7322 a63e bfea 3cbe 7c53 8b3e e7a7 2ebd
000000d0: 86ad c83d 56c7 7abd 2bc7 42bd 64bc 7ebe
000000e0: b079 443d 18cc 2d3e a638 62be 7fc7 27bc
000000f0: d7d7 0c3d 528f 383e 6da6 66bc be7b 8bbd
00000100: 0eda fa3d d2b9 1ebd c265 3fbe 63ca 73bd
00000110: 7f01 d9bd 13f0 7e3e 1851 41be c18f b3bd
00000120: 16e3 273d 244f 94be 7c54 cc3c daf3 c93c
00000130: cc6c ccbc bc3f c43d d808 3dbe 26b2 84be
00000140: 2b83 9a3e e8c8 7b3c 3ad8 783e 8010 4a3e
00000150: a5c2 7d3e 91d5 3f3e bd90 95be aeae abbd
00000160: da7e fc3d afe7 acbe 79a3 ddbd f900 183e
00000170: 0fc1 1e3d 3082 aebc 72df a5bd 5a78 4fbc
00000180: 2b72 223e 79aa e2bd f089 8e3e 4ab3 29bd
00000190: bf8c 9b3d bd1d b63d 404b 32be 6c17 ca3d
000001a0: d84c 123e 9b0c 553e 211b a2bd fd56 dfbd
000001b0: 95b2 f0bc b3ec 1ebe 1d10 6c3e 0a70 183d
000001c0: 9617 c23d 9b76 30be 36d5 4b3e 451f aabb
000001d0: fedb 62be 9c0c 17be f7e5 633d 2e8e aabd
000001e0: b2ef c0bc aa31 94bd fba1 81be a3b3 f0bd
000001f0: 874f 1b3c 3021 d3bd a8bb fdbd 064a abbc
-0.22779219 -0.09522989 0.06908585 -0.21201575 0.123029694 0.106524974 -0.16212893 -0.11690289
-0.14488672 -0.20344111 -0.2958615 -0.2740337 0.06396119 -0.11015953 -0.27972198 -0.067046985
0.27653426 -0.2352402 -0.27076226 -0.06182458 0.15752865 0.23242849 -0.0072258236 0.24833548
-0.19308242 -0.28897855 -0.075706206 -0.3346081 -0.29186514 0.024796912 -0.015022431 0.17644434
-0.0062953625 -0.16654532 -0.001341519 0.24044763 -0.07418004 0.26380777 0.1326008 0.17651863
-0.14595324 -0.28931355 -0.29789257 -0.018114567 -0.24555118 0.05242895 -0.3211246 -0.007881883
0.32448158 -0.18448924 0.2721213 -0.042640593 0.09798722 -0.061225258 -0.047553223 -0.24876553
0.047967613 0.16972387 -0.22091922 -0.010240435 0.03438553 0.18023422 -0.014077765 -0.06810711
0.12248622 -0.03875143 -0.18691161 -0.059519183 -0.105959885 0.24896269 -0.18878591 -0.08767653
0.04098805 -0.2896663 0.024942629 0.02465241 -0.024954222 0.09582469 -0.18460405 -0.25917166
0.30178198 0.015367724 0.24301234 0.19732857 0.24781282 0.18733813 -0.2921199 -0.08382927
0.123288825 -0.3377051 -0.108221956 0.14844121 0.038758334 -0.021302313 -0.080992594 -0.012662971
0.15863864 -0.11067671 0.27839613 -0.04143075 0.075952046 0.08892391 -0.17411518 0.098677486
0.14287126 0.2080559 -0.07915331 -0.109052636 -0.02938203 -0.15519981 0.23053022 0.037216224
0.09477155 -0.17232744 0.19905552 -0.005191716 -0.22154233 -0.14750904 0.055639233 -0.083279
-0.023551796 -0.07236035 -0.25318894 -0.11753013 0.00947941 -0.103090644 -0.12389308 -0.02090932

FC.2.weight f4 [128, 128, 1]
00000000: 16b7 a03d 3451 fabd c822 04be 5cb4 8bbd
00000010: 476c 80bd 427e f53c 1aca 8e3d 5d83 4cbc
00000020: b329 03bd 9197 9cba 3f51 843d 73ab a83d
00000030: f21b b2bd 68a9 c53d 40c0 61bd e563 f73d
00000040: 3e34 68bd bae6 07bd 3077 13bd ea24 0bbc
00000050: 9ed3 16bd 7f73 18bd 18d9 f63d 1685 533c
00000060: afa3 a23c 82a3 d13d d597 dd3d 1865 ba3d
00000070: 48a9 7e3d 9398 d13c 6e6c a83c adab 9c3a
00000080: 9007 1ebe 1c26 993c 8d6e e7bd 8395 c83d
00000090: 5d94 d6bd cd41 4d3d 1c5a cbbd 3aff 4d3c
000000a0: e256 15bd 72cb 093d 7cee 9f3d 217a 45bd
000000b0: 627b 543d 29fb 02be f117 89bb 1790 c23d
000000c0: 5715 82bc e255 58bb 0474 b8bd f2fd 09bd
000000d0: 9f02 8b3c 97da 423d 8d89 f83d 1165 873c
000000e0: 2561 dc3c b6a9 abbc af73 9d3c 54ac 073d
000000f0: 0f8c ab3c 1471 57bd 3f48 9bbd 9693 613c
00000100: 1c06 91bd c25d eb3d 0b0d cfbc d36f 263e
00000110: 70d1 043e bff4 eabd 3add bf3d 323f 8b3d
00000120: 3221 d4bd 43c7 b93d 8453 c0bd 34aa e33c
00000130: ae96 803c eb20 523c f597 c5bc b524 9a3d
00000140: 385b b23c 3a6f 04be db6c 58bd 7626 22bc
00000150: a837 d0bc af1e bebd 3148 0dba a48f c83d
00000160: 7961 02be fe3d 913a 0da9 ce3c 04c3 a33c
00000170: 6437 913d a706 cdbd ae3a 2cbd 8bbc 9bbd
00000180: d326 953c fb02 013d 0094 b4ba 8292 293d
00000190: a4e4 883c 9711 193d bdc9 bfbc 4664 b6ba
000001a0: 0435 cd3c 1201 67bd ff54 d43d 79bd f23d
000001b0: 5bbd 153d 76e5 b5bc 38fc 8fbd 5846 ee3d
000001c0: 4b5e 83bd bec9 983d 1d56 c6ba 6c75 3f3c
000001d0: 031c c73b fbbd 353d 99c7 d8bd 0669 5e3c
000001e0: 8a1c 2f3d e1f0 633d 52ef 933d 8619 b4bd
000001f0: 82bd f1bd 22ab 51bd ad22 0a3d a334 ed3d
00000200: 292b 59bd 588a 163e c0ae b23d 5586 053d
00000210: 1547 a3bd 85bf 353d 1c3a 38bc 0679 673d
00000220: fdd2 9fbd 55fb be3c ce72 f43d 4e69 d03d
00000230: 9121 683d 86a4 5b3d a3a8 2fbd 6fe0 af3c
00000240: 9c5a 22b9 bfa8 563d e039 d5bb 1a9c d43b
00000250: 96e9 843d c2cb 93bd 0508 20be 0f55 b0bc
00000260: d7cf b13d e22c 7a3d 04ee 2bbc 3d97 c03d
00000270: 616c 2dbc 12e0 e6bb ca14 c7bd 3e43 973d
00000280: 6621 933d f08d 7dbd 8899 e2bc c8c7 97bd
00000290: e610 1e3e b8ee 09be ebaf b0bb d08b b7bd
000002a0: 9e0e 86bd 3297 ff3d 63e9 02bd d447 f93d
000002b0: f808 9b3c 392a 613d 1cad 513d e3a3 8f3c
000002c0: 1a6b d7bd 1bae 83bd 4454 acbd d43f 223d
000002d0: 887f 873d e932 d83d a45d 9a3c e06d 8f3c
000002e0: 844d 613c 5644 dfbd 841b f1ba 272e 38bd
000002f0: 5e4d d0bd cf80 41bd 9061 313e fa26 9a3d
00000300: 3ac7 d13d aa7f b4bd 0261 b13d 532a edbd
00000310: d94e 253d 6498 623c f37e 80bd 3315 0d3d
00000320: 67ce 19bd 3687 933d 66af 383d 6d00 cbbb
00000330: f0ff bf3d e4a6 17be b207 c93d 20a6 55bd
00000340: dbf7 8d3c 5d4b 603d 1143 87bd 3a57 a8bc
00000350: f6cd 04be d796 acbd 18a0 cb3d 8613 28bc
00000360: 469f 883d 5b10 963d a59e 00b9 611b 14bd
00000370: ddb1 373d d712 a33c 7657 3d3e 6f2d 0d3e
00000380: 33b0 d73d 6888 9d3c 60aa 4fbd c286 74bd
00000390: caa3 0b3d b398 3ebd e609 17bd 985a d9bd
000003a0: b0c5 9a3d 48b4 143d fb0e be3d d1ad b9bd
000003b0: b63a 003d 8d75 413e 1864 80bd 7375 fb3c
000003c0: c090 b93d cdeb d53d c7d4 8dbd eedd 2bbd
000003d0: bd76 d53d bf84 3abc dfad d93c b2ff 8d3c
000003e0: e943 973c 0574 a93d c117 e13d ce37 ad3c
000003f0: 3d02 0ebc c728 22bd 8cc3 a0bc 558f 223c
0.07847421 -0.122225195 -0.12903893 -0.0682151 -0.06270652 0.029967431 0.069721416 -0.012482491
-0.03202219 -0.0011947026 0.06460809 0.08235826 -0.086967364 0.09651452 -0.055114985 0.120796
-0.056690447 -0.033179022 -0.036002338 -0.008492688 -0.036822908 -0.03721952 0.12053126 0.012910148
0.019853441 0.10236265 0.10819975 0.09101313 0.062173158 0.025585448 0.020559516 0.0011953019
-0.15432572 0.01869493 -0.11300383 0.09794142 -0.10477517 0.05011158 -0.099292964 0.012573058
-0.03645981 0.033641286 0.07809159 -0.048212174 0.05187548 -0.12791122 -0.0041837622 0.09500139
-0.015879316 -0.0033010175 -0.09006503 -0.033689447 0.016969023 0.047571745 0.12135611 0.016527684
0.02690179 -0.020954948 0.019220201 0.03312333 0.020940809 -0.052598074 -0.07582139 0.013768097
-0.070812434 0.11492492 -0.025274774 0.16253595 0.12970519 -0.11472463 0.093683675 0.06799163
-0.10357894 0.09071209 -0.09390929 0.02779112 0.01569685 0.012825231 -0.02412031 0.075265326
0.021772012 -0.12933055 -0.052838188 -0.009896865 -0.025417164 -0.09283196 -0.00053894805 0.09793022
-0.12732495 0.0011081097 0.025227094 0.019990452 0.07090643 -0.100110345 -0.04204815 -0.07604321
0.01820699 0.031496983 -0.0013777018 0.041399486 0.016710587 0.03737029 -0.023411626 -0.0013915382
0.025049694 -0.056397505 0.10367774 0.11852545 0.036557537 -0.022204142 -0.07030529 0.11634511
-0.06414469 0.07460354 -0.0015131865 0.01168571 0.0060763373 0.044370633 -0.10584945 0.013574844
0.042751826 0.055649642 0.07223381 -0.08793931 -0.11803724 -0.051188596 0.033724476 0.11582305
-0.053019676 0.14701211 0.08724737 0.032598812 -0.07972542 0.0443721 -0.011244323 0.0565119
-0.07803915 0.023313204 0.1193596 0.10176335 0.056672636 0.0536237 -0.042885434 0.021469323
-0.00015483279 0.052407023 -0.0065071434 0.0064883353 0.064898655 -0.07216598 -0.15628059 -0.021524934
0.086822204 0.06107796 -0.010493759 0.094038464 -0.010584922 -0.007045754 -0.09720762 0.07385872
0.071841046 -0.06190294 -0.0276611 -0.07411152 0.15436134 -0.1346997 -0.005392065 -0.08962214
-0.06545757 0.1248001 -0.031960856 0.12171903 0.018925175 0.054971907 0.05119048 0.017534202
-0.10518475 -0.06429692 -0.0841451 0.039611652 0.066161215 0.10556585 0.01884348 0.017508447
0.013751391 -0.10901706 -0.0018395041 -0.04496589 -0.101710066 -0.047241982 0.17322373 0.075269654
0.102430776 -0.088134125 0.08661081 -0.11580338 0.040358398 0.013830278 -0.06274214 0.034444045
-0.037550356 0.07203524 0.045089148 -0.006195119 0.09374988 -0.14809757 0.09815921 -0.052160382
0.0173301 0.054759372 -0.06604589 -0.020549405 -0.12969193 -0.08427208 0.09942645 -0.010258561
0.06671004 0.07327338 -0.00012266131 -0.036158923 0.044847358 0.019906444 0.18490395 0.13786863
0.10531654 0.019230083 -0.05069959 -0.059698828 0.03409175 -0.046532344 -0.036874674 -0.106129825
0.07557237 0.036304742 0.09280201 -0.09066356 0.03130599 0.18892498 -0.06269091 0.030695653
0.09060812 0.10445366 -0.0692535 -0.041959696 0.10423038 -0.011384188 0.026572166 0.01733384
0.018465 0.08274082 0.10990859 0.021144774 -0.008667526 -0.03958967 -0.019624494 0.009921868

FC.2.bias f4 [128]
00000000: 5b42 69be e307 c3bd e27c 8d3d a81a 59be
00000010: fef6 fb3d c429 da3d 2005 26be c86a efbd
00000020: 2f5d 14be de52 50be 297b 97be 254e 8cbe
00000030: 16fe 823d 529b e1bd b837 8fbe ee4f 89bd
00000040: e695 8d3e cfe2 70be 5aa1 8abe c53b 7dbd
00000050: 314f 213e bc01 6e3e 9ac6 ecbb a84b 7e3e
00000060: 66b7 45be fff4 93be db0b 9bbd c151 abbe
00000070: 596f 95be e522 cb3c a420 76bc d3ad 343e
00000080: 5449 cebb db8a 2abe e8d5 afba e737 763e
00000090: b4eb 97bd d011 873e 81c8 073e 4dc1 343e
000000a0: c474 15be e820 94be 6085 98be 0065 94bc
000000b0: c571 7bbe bdbf 563d 726a a4be 0323 01bc
000000c0: 7322 a63e bfea 3cbe 7c53 8b3e e7a7 2ebd
000000d0: 86ad c83d 56c7 7abd 2bc7 42bd 64bc 7ebe
000000e0: b079 443d 18cc 2d3e a638 62be 7fc7 27bc
000000f0: d7d7 0c3d 528f 383e 6da6 66bc be7b 8bbd
00000100: 0eda fa3d d2b9 1ebd c265 3fbe 63ca 73bd
00000110: 7f01 d9bd 13f0 7e3e 1851 41be c18f b3bd
00000120: 16e3 273d 244f 94be 7c54 cc3c daf3 c93c
00000130: cc6c ccbc bc3f c43d d808 3dbe 26b2 84be
00000140: 2b83 9a3e e8c8 7b3c 3ad8 783e 8010 4a3e
00000150: a5c2 7d3e 91d5 3f3e bd90 95be aeae abbd
00000160: da7e fc3d afe7 acbe 79a3 ddbd f900 183e
00000170: 0fc1 1e3d 3082 aebc 72df a5bd 5a78 4fbc
00000180: 2b72 223e 79aa e2bd f089 8e3e 4ab3 29bd
00000190: bf8c 9b3d bd1d b63d 404b 32be 6c17 ca3d
000001a0: d84c 123e 9b0c 553e 211b a2bd fd56 dfbd
000001b0: 95b2 f0bc b3ec 1ebe 1d10 6c3e 0a70 183d
000001c0: 9617 c23d 9b76 30be 36d5 4b3e 451f aabb
000001d0: fedb 62be 9c0c 17be f7e5 633d 2e8e aabd
000001e0: b2ef c0bc aa31 94bd fba1 81be a3b3 f0bd
000001f0: 874f 1b3c 3021 d3bd a8bb fdbd 064a abbc
-0.22779219 -0.09522989 0.06908585 -0.21201575 0.123029694 0.106524974 -0.16212893 -0.11690289
-0.14488672 -0.20344111 -0.2958615 -0.2740337 0.06396119 -0.11015953 -0.27972198 -0.067046985
0.27653426 -0.2352402 -0.27076226 -0.06182458 0.15752865 0.23242849 -0.0072258236 0.24833548
-0.19308242 -0.28897855 -0.075706206 -0.3346081 -0.29186514 0.024796912 -0.015022431 0.17644434
-0.0062953625 -0.16654532 -0.001341519 0.24044763 -0.07418004 0.26380777 0.1326008 0.17651863
-0.14595324 -0.28931355 -0.29789257 -0.018114567 -0.24555118 0.05242895 -0.3211246 -0.007881883
0.32448158 -0.18448924 0.2721213 -0.042640593 0.09798722 -0.061225258 -0.047553223 -0.24876553
0.047967613 0.16972387 -0.22091922 -0.010240435 0.03438553 0.18023422 -0.014077765 -0.06810711
0.12248622 -0.03875143 -0.18691161 -0.059519183 -0.105959885 0.24896269 -0.18878591 -0.08767653
0.04098805 -0.2896663 0.024942629 0.02465241 -0.024954222 0.09582469 -0.18460405 -0.25917166
0.30178198 0.015367724 0.24301234 0.19732857 0.24781282 0.18733813 -0.2921199 -0.08382927
0.123288825 -0.3377051 -0.108221956 0.14844121 0.038758334 -0.021302313 -0.080992594 -0.012662971
0.15863864 -0.11067671 0.27839613 -0.04143075 0.075952046 0.08892391 -0.17411518 0.098677486
0.14287126 0.2080559 -0.07915331 -0.109052636 -0.02938203 -0.15519981 0.23053022 0.037216224
0.09477155 -0.17232744 0.19905552 -0.005191716 -0.22154233 -0.14750904 0.055639233 -0.083279
-0.023551796 -0.07236035 -0.25318894 -0.11753013 0.00947941 -0.103090644 -0.12389308 -0.02090932

FC.3.weight f4 [128, 128, 1]
00000000: 16b7 a03d 3451 fabd c822 04be 5cb4 8bbd
00000010: 476c 80bd 427e f53c 1aca 8e3d 5d83 4cbc
00000020: b329 03bd 9197 9cba 3f51 843d 73ab a83d
00000030: f21b b2bd 68a9 c53d 40c0 61bd e563 f73d
00000040: 3e34 68bd bae6 07bd 3077 13bd ea24 0bbc
00000050: 9ed3 16bd 7f73 18bd 18d9 f63d 1685 533c
00000060: afa3 a23c 82a3 d13d d597 dd3d 1865 ba3d
00000070: 48a9 7e3d 9398 d13c 6e6c a83c adab 9c3a
00000080: 9007 1ebe 1c26 993c 8d6e e7bd 8395 c83d
00000090: 5d94 d6bd cd41 4d3d 1c5a cbbd 3aff 4d3c
000000a0: e256 15bd 72cb 093d 7cee 9f3d 217a 45bd
000000b0: 627b 543d 29fb 02be f117 89bb 1790 c23d
000000c0: 5715 82bc e255 58bb 0474 b8bd f2fd 09bd
000000d0: 9f02 8b3c 97da 423d 8d89 f83d 1165 873c
000000e0: 2561 dc3c b6a9 abbc af73 9d3c 54ac 073d
000000f0: 0f8c ab3c 1471 57bd 3f48 9bbd 9693 613c
00000100: 1c06 91bd c25d eb3d 0b0d cfbc d36f 263e
00000110: 70d1 043e bff4 eabd 3add bf3d 323f 8b3d
00000120: 3221 d4bd 43c7 b93d 8453 c0bd 34aa e33c
00000130: ae96 803c eb20 523c f597 c5bc b524 9a3d
00000140: 385b b23c 3a6f 04be db6c 58bd 7626 22bc
00000150: a837 d0bc af1e bebd 3148 0dba a48f c83d
00000160: 7961 02be fe3d 913a 0da9 ce3c 04c3 a33c
00000170: 6437 913d a706 cdbd ae3a 2cbd 8bbc 9bbd
00000180: d326 953c fb02 013d 0094 b4ba 8292 293d
00000190: a4e4 883c 9711 193d bdc9 bfbc 4664 b6ba
000001a0: 0435 cd3c 1201 67bd ff54 d43d 79bd f23d
000001b0: 5bbd 153d 76e5 b5bc 38fc 8fbd 5846 ee3d
000001c0: 4b5e 83bd bec9 983d 1d56 c6ba 6c75 3f3c
000001d0: 031c c73b fbbd 353d 99c7 d8bd 0669 5e3c
000001e0: 8a1c 2f3d e1f0 633d 52ef 933d 8619 b4bd
000001f0: 82bd f1bd 22ab 51bd ad22 0a3d a334 ed3d
00000200: 292b 59bd 588a 163e c0ae b23d 5586 053d
00000210: 1547 a3bd 85bf 353d 1c3a 38bc 0679 673d
00000220: fdd2 9fbd 55fb be3c ce72 f43d 4e69 d03d
00000230: 9121 683d 86a4 5b3d a3a8 2fbd 6fe0 af3c
00000240: 9c5a 22b9 bfa8 563d e039 d5bb 1a9c d43b
00000250: 96e9 843d c2cb 93bd 0508 20be 0f55 b0bc
00000260: d7cf b13d e22c 7a3d 04ee 2bbc 3d97 c03d
00000270: 616c 2dbc 12e0 e6bb ca14 c7bd 3e43 973d
00000280: 6621 933d f08d 7dbd 8899 e2bc c8c7 97bd
00000290: e610 1e3e b8ee 09be ebaf b0bb d08b b7bd
000002a0: 9e0e 86bd 3297 ff3d 63e9 02bd d447 f93d
000002b0: f808 9b3c 392a 613d 1cad 513d e3a3 8f3c
000002c0: 1a6b d7bd 1bae 83bd 4454 acbd d43f 223d
000002d0: 887f 873d e932 d83d a45d 9a3c e06d 8f3c
000002e0: 844d 613c 5644 dfbd 841b f1ba 272e 38bd
000002f0: 5e4d d0bd cf80 41bd 9061 313e fa26 9a3d
00000300: 3ac7 d13d aa7f b4bd 0261 b13d 532a edbd
00000310: d94e 253d 6498 623c f37e 80bd 3315 0d3d
00000320: 67ce 19bd 3687 933d 66af 383d 6d00 cbbb
00000330: f0ff bf3d e4a6 17be b207 c93d 20a6 55bd
00000340: dbf7 8d3c 5d4b 603d 1143 87bd 3a57 a8bc
00000350: f6cd 04be d796 acbd 18a0 cb3d 8613 28bc
00000360: 469f 883d 5b10 963d a59e 00b9 611b 14bd
00000370: ddb1 373d d712 a33c 7657 3d3e 6f2d 0d3e
00000380: 33b0 d73d 6888 9d3c 60aa 4fbd c286 74bd
00000390: caa3 0b3d b398 3ebd e609 17bd 985a d9bd
000003a0: b0c5 9a3d 48b4 143d fb0e be3d d1ad b9bd
000003b0: b63a 003d 8d75 413e 1864 80bd 7375 fb3c
000003c0: c090 b93d cdeb d53d c7d4 8dbd eedd 2bbd
000003d0: bd76 d53d bf84 3abc dfad d93c b2ff 8d3c
000003e0: e943 973c 0574 a93d c117 e13d ce37 ad3c
000003f0: 3d02 0ebc c728 22bd 8cc3 a0bc 558f 223c
0.07847421 -0.122225195 -0.12903893 -0.0682151 -0.06270652 0.029967431 0.069721416 -0.012482491
-0.03202219 -0.0011947026 0.06460809 0.08235826 -0.086967364 0.09651452 -0.055114985 0.120796
-0.056690447 -0.033179022 -0.036002338 -0.008492688 -0.036822908 -0.03721952 0.12053126 0.012910148
0.019853441 0.10236265 0.10819975 0.09101313 0.062173158 0.025585448 0.020559516 0.0011953019
-0.15432572 0.01869493 -0.11300383 0.09794142 -0.10477517 0.05011158 -0.099292964 0.012573058
-0.03645981 0.033641286 0.07809159 -0.048212174 0.05187548 -0.12791122 -0.0041837622 0.09500139
-0.015879316 -0.0033010175 -0.09006503 -0.033689447 0.016969023 0.047571745 0.12135611 0.016527684
0.02690179 -0.020954948 0.019220201 0.03312333 0.020940809 -0.052598074 -0.07582139 0.013768097
-0.070812434 0.11492492 -0.025274774 0.16253595 0.12970519 -0.11472463 0.093683675 0.06799163
-0.10357894 0.09071209 -0.09390929 0.02779112 0.01569685 0.012825231 -0.02412031 0.075265326
0.021772012 -0.12933055 -0.052838188 -0.009896865 -0.025417164 -0.09283196 -0.00053894805 0.09793022
-0.12732495 0.0011081097 0.025227094 0.019990452 0.07090643 -0.100110345 -0.04204815 -0.07604321
0.01820699 0.031496983 -0.0013777018 0.041399486 0.016710587 0.03737029 -0.023411626 -0.0013915382
0.025049694 -0.056397505 0.10367774 0.11852545 0.036557537 -0.022204142 -0.07030529 0.11634511
-0.06414469 0.07460354 -0.0015131865 0.01168571 0.0060763373 0.044370633 -0.10584945 0.013574844
0.042751826 0.055649642 0.07223381 -0.08793931 -0.11803724 -0.051188596 0.033724476 0.11582305
-0.053019676 0.14701211 0.08724737 0.032598812 -0.07972542 0.0443721 -0.011244323 0.0565119
-0.07803915 0.023313204 0.1193596 0.10176335 0.056672636 0.0536237 -0.042885434 0.021469323
-0.00015483279 0.052407023 -0.0065071434 0.0064883353 0.064898655 -0.07216598 -0.15628059 -0.021524934
0.086822204 0.06107796 -0.010493759 0.094038464 -0.010584922 -0.007045754 -0.09720762 0.07385872
0.071841046 -0.06190294 -0.0276611 -0.07411152 0.15436134 -0.1346997 -0.005392065 -0.08962214
-0.06545757 0.1248001 -0.031960856 0.12171903 0.018925175 0.054971907 0.05119048 0.017534202
-0.10518475 -0.06429692 -0.0841451 0.039611652 0.066161215 0.10556585 0.01884348 0.017508447
0.013751391 -0.10901706 -0.0018395041 -0.04496589 -0.101710066 -0.047241982 0.17322373 0.075269654
0.102430776 -0.088134125 0.08661081 -0.11580338 0.040358398 0.013830278 -0.06274214 0.034444045
-0.037550356 0.07203524 0.045089148 -0.006195119 0.09374988 -0.14809757 0.09815921 -0.052160382
0.0173301 0.054759372 -0.06604589 -0.020549405 -0.12969193 -0.08427208 0.09942645 -0.010258561
0.06671004 0.07327338 -0.00012266131 -0.036158923 0.044847358 0.019906444 0.18490395 0.13786863
0.10531654 0.019230083 -0.05069959 -0.059698828 0.03409175 -0.046532344 -0.036874674 -0.106129825
0.07557237 0.036304742 0.09280201 -0.09066356 0.03130599 0.18892498 -0.06269091 0.030695653
0.09060812 0.10445366 -0.0692535 -0.041959696 0.10423038 -0.011384188 0.026572166 0.01733384
0.018465 0.08274082 0.10990859 0.021144774 -0.008667526 -0.03958967 -0.019624494 0.009921868

FC.3.bias f4 [128]
00000000: 5b42 69be e307 c3bd e27c 8d3d a81a 59be
00000010: fef6 fb3d c429 da3d 2005 26be c86a efbd
00000020: 2f5d 14be de52 50be 297b 97be 254e 8cbe
00000030: 16fe 823d 529b e1bd b837 8fbe ee4f 89bd
00000040: e695 8d3e cfe2 70be 5aa1 8abe c53b 7dbd
00000050: 314f 213e bc01 6e3e 9ac6 ecbb a84b 7e3e
00000060: 66b7 45be fff4 93be db0b 9bbd c151 abbe
00000070: 596f 95be e522 cb3c a420 76bc d3ad 343e
00000080: 5449 cebb db8a 2abe e8d5 afba e737 763e
00000090: b4eb 97bd d011 873e 81c8 073e 4dc1 343e
000000a0: c474 15be e820 94be 6085 98be 0065 94bc
000000b0: c571 7bbe bdbf 563d 726a a4be 0323 01bc
000000c0: 7322 a63e bfea 3cbe 7c53 8b3e e7a7 2ebd
000000d0: 86ad c83d 56c7 7abd 2bc7 42bd 64bc 7ebe
000000e0: b079 443d 18cc 2d3e a638 62be 7fc7 27bc
000000f0: d7d7 0c3d 528f 383e 6da6 66bc be7b 8bbd
00000100: 0eda fa3d d2b9 1ebd c265 3fbe 63ca 73bd
00000110: 7f01 d9bd 13f0 7e3e 1851 41be c18f b3bd
00000120: 16e3 273d 244f 94be 7c54 cc3c daf3 c93c
00000130: cc6c ccbc bc3f c43d d808 3dbe 26b2 84be
00000140: 2b83 9a3e e8c8 7b3c 3ad8 783e 8010 4a3e
00000150: a5c2 7d3e 91d5 3f3e bd90 95be aeae abbd
00000160: da7e fc3d afe7 acbe 79a3 ddbd f900 183e
00000170: 0fc1 1e3d 3082 aebc 72df a5bd 5a78 4fbc
00000180: 2b72 223e 79aa e2bd f089 8e3e 4ab3 29bd
00000190: bf8c 9b3d bd1d b63d 404b 32be 6c17 ca3d
000001a0: d84c 123e 9b0c 553e 211b a2bd fd56 dfbd
000001b0: 95b2 f0bc b3ec 1ebe 1d10 6c3e 0a70 183d
000001c0: 9617 c23d 9b76 30be 36d5 4b3e 451f aabb
000001d0: fedb 62be 9c0c 17be f7e5 633d 2e8e aabd
000001e0: b2ef c0bc aa31 94bd fba1 81be a3b3 f0bd
000001f0: 874f 1b3c 3021 d3bd a8bb fdbd 064a abbc
-0.22779219 -0.09522989 0.06908585 -0.21201575 0.123029694 0.106524974 -0.16212893 -0.11690289
-0.14488672 -0.20344111 -0.2958615 -0.2740337 0.06396119 -0.11015953 -0.27972198 -0.067046985
0.27653426 -0.2352402 -0.27076226 -0.06182458 0.15752865 0.23242849 -0.0072258236 0.24833548
-0.19308242 -0.28897855 -0.075706206 -0.3346081 -0.29186514 0.024796912 -0.015022431 0.17644434
-0.0062953625 -0.16654532 -0.001341519 0.24044763 -0.07418004 0.26380777 0.1326008 0.17651863
-0.14595324 -0.28931355 -0.29789257 -0.018114567 -0.24555118 0.05242895 -0.3211246 -0.007881883
0.32448158 -0.18448924 0.2721213 -0.042640593 0.09798722 -0.061225258 -0.047553223 -0.24876553
0.047967613 0.16972387 -0.22091922 -0.010240435 0.03438553 0.18023422 -0.014077765 -0.06810711
0.12248622 -0.03875143 -0.18691161 -0.059519183 -0.105959885 0.24896269 -0.18878591 -0.08767653
0.04098805 -0.2896663 0.024942629 0.02465241 -0.024954222 0.09582469 -0.18460405 -0.25917166
0.30178198 0.015367724 0.24301234 0.19732857 0.24781282 0.18733813 -0.2921199 -0.08382927
0.123288825 -0.3377051 -0.108221956 0.14844121 0.038758334 -0.021302313 -0.080992594 -0.012662971
0.15863864 -0.11067671 0.27839613 -0.04143075 0.075952046 0.08892391 -0.17411518 0.098677486
0.14287126 0.2080559 -0.07915331 -0.109052636 -0.02938203 -0.15519981 0.23053022 0.037216224
0.09477155 -0.17232744 0.19905552 -0.005191716 -0.22154233 -0.14750904 0.055639233 -0.083279
-0.023551796 -0.07236035 -0.25318894 -0.11753013 0.00947941 -0.103090644 -0.12389308 -0.02090932
